data/model_singlecapital.npz (npy, 2480 bytes, 1 tensors)

array (column-major) f8 [12, 25]
000000 54 ed c4 6e 18 5f 9b 3f 5d 12 ee 3c b5 75 b5 3f
       0.026729947815721758 0.08382733094738044
000010 91 21 b9 99 99 99 b9 3f 3f 80 a9 97 99 99 c9 3f
       0.10000000002867739 0.1999999990976011
000020 ab 78 99 99 99 99 b9 3f c6 f4 e9 9c 99 99 c9 3f
       0.099999999999883 0.20000000154315084
000030 7e cc 22 9c 99 99 b9 3f 4c 4a 91 9b 99 99 c9 3f
       0.10000000059044287 0.20000000091620718
000040 02 ca 9c 99 99 99 b9 3f 3e 01 9b 99 99 99 c9 3f
       0.10000000000290046 0.2000000000025554
000050 de be af 99 99 99 b9 3f 4a 1c 9e 99 99 99 c9 3f
       0.10000000002014128 0.20000000000820456
000060 00 00 00 00 00 00 00 00 00 00 00 00 00 00 00 00
       0.0 0.0
000070 c8 2c a8 47 e1 7a 64 bf 61 66 c4 45 e1 7a 74 bf
       -0.0024999999998321677 -0.00499999997216491
000080 d4 18 29 6b 23 93 5c bf c7 bc 5b b5 61 9a 6d bf
       -0.0017440648922657969 -0.003613653980998419
000090 b4 92 eb f4 fe 0b 36 bf 58 b0 ac 7f 6c 17 5a bf
       -0.00033640837220464824 -0.001592498737134759
0000a0 d4 18 29 6b 23 93 5c bf c7 bc 5b b5 61 9a 6d bf
       -0.0017440648922657969 -0.003613653980998419
0000b0 b4 92 eb f4 fe 0b 36 bf 58 b0 ac 7f 6c 17 5a bf
       -0.00033640837220464824 -0.001592498737134759
0000c0 7b 14 ae 47 e1 7a 84 3f 7b 14 ae 47 e1 7a 74 3f
       0.01 0.005
0000d0 79 e9 26 31 08 ac 8c 3f 79 e9 26 31 08 ac 8c 3f
       0.014 0.014
0000e0 7b 14 ae 47 e1 7a 84 3f 7b 14 ae 47 e1 7a 84 3f
       0.01 0.01
0000f0 7b 14 ae 47 e1 7a 74 3f 7b 14 ae 47 e1 7a 74 3f
       0.005 0.005
000100 79 e9 26 31 08 ac 8c 3f 79 e9 26 31 08 ac 8c 3f
       0.014 0.014
000110 79 e9 26 31 08 ac 8c 3f 79 e9 26 31 08 ac 8c 3f
       0.014 0.014
000120 00 00 00 00 00 00 f0 3f 00 00 00 00 00 00 f0 3f
       1.0 1.0
000130 00 00 00 00 00 00 f0 3f 00 00 00 00 00 00 f0 3f
       1.0 1.0
000140 00 00 00 00 00 00 f0 3f 00 00 00 00 00 00 f0 3f
       1.0 1.0
000150 00 00 00 00 00 00 f0 3f 00 00 00 00 00 00 f0 3f
       1.0 1.0
000160 3f ff 67 c0 4b 7f f2 3f 07 d9 28 5b 1a 22 f3 3f
       1.156078101717824 1.195825916378057
000170 33 d1 05 7f 2a c8 f2 3f 9a 0d 16 70 db 76 f3 3f
       1.1738686525178081 1.2165178659787217
000180 6f 46 4e 16 29 84 de 3f 89 e2 11 a9 61 f2 dd 3f
       0.4768164365606031 0.46791879187325286
000190 b1 c0 23 21 06 23 dd 3f 3a 6c c2 1f 31 4c db 3f
       0.45526269184393714 0.42652538396368167
0001a0 76 cf a7 09 9d 58 dd 3f 48 ee 6c cd de b8 db 3f
       0.4585335344593128 0.43315858899197623
0001b0 f4 2d 2d 3c d3 c7 dd 3f e2 80 1d 94 72 a9 dc 3f
       0.465321358457657 0.44784225906734154
0001c0 1d ec e2 85 79 9e dd 3f ce 52 7a 84 d4 ec dc 3f
       0.4627975280270123 0.4519549649933595
0001d0 ed 4e 51 f6 f6 df dd 3f 85 57 ef b1 de a7 dd 3f
       0.4667947202153602 0.4633709657331269
0001e0 84 66 1d e1 6c 12 f0 3f eb 25 c0 7e 84 67 f0 3f
       1.004498366694322 1.0252728415674663
0001f0 00 00 00 00 00 00 f0 3f 00 00 00 00 00 00 f0 3f
       1.0 1.0
000200 84 66 1d e1 6c 12 f0 3f 84 66 1d e1 6c 12 f0 3f
       1.004498366694322 1.004498366694322
000210 eb 25 c0 7e 84 67 f0 3f eb 25 c0 7e 84 67 f0 3f
       1.0252728415674663 1.0252728415674663
000220 b7 33 32 08 db 65 f0 3f 3b fd b6 1e af b1 f0 3f
       1.0248670883331508 1.043379898051923
000230 89 8d e8 3b 65 83 f0 3f f3 9b a7 bf 78 ed f0 3f
       1.0320789661571743 1.0579764830124503
000240 2f e9 16 7d 55 12 46 bf 62 2f 5c 7a a2 60 5a bf
       -0.0006735722947078022 -0.001609953565494281
000250 29 58 76 6e 65 c6 65 bf c6 8c b5 6c 65 c6 75 bf
       -0.002658079250703178 -0.005316158475895344
000260 4c 85 e3 db a5 06 65 bf 1c 1e a2 fe 23 0b 75 bf
       -0.0025666465218000863 -0.005137577633042702
000270 dc 7a 8a b0 c1 fe 5f bf ae 12 f2 95 e9 6e 70 bf
       -0.0019528285503508857 -0.004012024349439853
000280 e9 45 9c 77 ef eb 5f bf 3a 76 8b 92 db 0a 68 bf
       -0.0019483412310744525 -0.002934864857123268
000290 70 d2 22 7b 3a 3e 5c bf 05 17 5d af 2c f1 60 bf
       -0.0017238207915798685 -0.0020681259874518764
0002a0 26 5e dd a3 b7 5c 8b 3f aa a1 25 8e 28 50 85 3f
       0.013360438049558953 0.010406796300871008
0002b0 79 e9 26 31 08 ac 8c 3f 79 e9 26 31 08 ac 8c 3f
       0.014 0.014
0002c0 26 5e dd a3 b7 5c 8b 3f 26 5e dd a3 b7 5c 8b 3f
       0.013360438049558953 0.013360438049558953
0002d0 aa a1 25 8e 28 50 85 3f aa a1 25 8e 28 50 85 3f
       0.010406796300871008 0.010406796300871008
0002e0 37 37 3a 62 67 6e 85 3f 25 e3 9c c2 6e 0a 80 3f
       0.0104644848682046 0.007832398714172914
0002f0 ec 41 f4 f8 d1 54 83 3f 9e 27 09 cf c3 94 77 3f
       0.009439125452019824 0.005757107618203165
000300 20 61 c2 62 57 9b ad bf 0e 2f 3b f3 57 5c c6 bf
       -0.05782578545148653 -0.17469310165903845
000310 0c 5e 7e a5 16 fb cb bf d5 aa 3d a3 16 fb db bf
       -0.21860011177771843 -0.4372002214574143
000320 fe 5c 31 c8 cb f5 cb bf 74 80 f4 0c 93 f9 db bf
       -0.2184385993484525 -0.4371078135027411
000330 30 84 6a 09 5b 04 cb bf f9 a3 11 f7 64 9c db bf
       -0.21107042274255283 -0.4314205563337619
000340 dc a1 da 93 6b 23 cb bf 64 f1 08 c6 90 12 db bf
       -0.21201843947825594 -0.4230081495222946
000350 88 8f b8 58 02 54 ca bf 18 46 48 c0 d6 a4 d9 bf
       -0.20568875629498629 -0.4006859662777926
000360 65 a9 10 d4 93 69 37 3f 72 fd 90 b2 5d c8 6c 3f
       0.00035724505511560415 0.003513510706880823
000370 a0 87 e0 47 e1 7a 74 3f 50 52 94 44 e1 7a 94 3f
       0.005000000002867738 0.01999999981952022
000380 ca df ad 47 e1 7a 74 3f 29 73 fb 4c e1 7a 94 3f
       0.0049999999999883 0.02000000030863017
000390 4f cc bc 4b e1 7a 74 3f ff fb d3 4a e1 7a 94 3f
       0.005000000059044287 0.020000000183241436
0003a0 bc 2e b3 47 e1 7a 74 3f e8 53 b0 47 e1 7a 94 3f
       0.005000000000290047 0.02000000000051108
0003b0 4e 83 d1 47 e1 7a 74 3f fc 4b b5 47 e1 7a 94 3f
       0.005000000002014128 0.020000000001640914
0003c0 54 ed c4 6e 18 5f 9b 3f 5d 12 ee 3c b5 75 b5 3f
       0.026729947815721758 0.08382733094738044
0003d0 91 21 b9 99 99 99 b9 3f 3f 80 a9 97 99 99 c9 3f
       0.10000000002867739 0.1999999990976011
0003e0 ab 78 99 99 99 99 b9 3f c6 f4 e9 9c 99 99 c9 3f
       0.099999999999883 0.20000000154315084
0003f0 7e cc 22 9c 99 99 b9 3f 4c 4a 91 9b 99 99 c9 3f
       0.10000000059044287 0.20000000091620718
000400 02 ca 9c 99 99 99 b9 3f 3e 01 9b 99 99 99 c9 3f
       0.10000000000290046 0.2000000000025554
000410 de be af 99 99 99 b9 3f 4a 1c 9e 99 99 99 c9 3f
       0.10000000002014128 0.20000000000820456
000420 03 ca e9 c9 97 63 16 3f 3e f3 31 e5 08 5d 45 3f
       8.540739006849406e-05 0.0006519597467470118
000430 a0 87 e0 47 e1 7a 54 3f 50 52 94 44 e1 7a 74 3f
       0.0012500000007169346 0.004999999954880055
000440 52 22 d6 0f b9 8f 53 3f 44 20 c3 2f 79 8f 73 3f
       0.0011939341778505375 0.0047754987574038545
000450 46 a0 97 d6 6c 3a 4e 3f b7 13 a0 b0 0f f3 6d 3f
       0.0009224921643040749 0.0036559397167388002
000460 94 f0 e4 01 ff 91 4e 3f 61 f6 15 e2 89 d8 65 3f
       0.000932931437808831 0.00266673021604795
000470 74 eb d4 41 ac 6c 4b 3f ae 82 a7 66 8c b6 5e 3f
       0.0008369294261350983 0.0018745776275112358
000480 13 8e 4e 75 c6 b3 bf 40 87 fa aa 01 b3 9c 90 40
       8115.775227460562 1063.1748110499773
000490 69 cd 08 57 24 54 81 40 17 1c d3 59 24 54 61 40
       554.5177441299139 138.6294373629796
0004a0 4a 36 fe 4f 75 24 82 40 2b 08 a1 8e b0 24 62 40
       580.5572814808195 145.14655238582176
0004b0 eb 33 72 61 15 7b 87 40 36 b9 24 a6 08 b3 67 40
       751.3854397699446 189.59480578587107
0004c0 71 78 26 2b d2 37 87 40 73 03 9b b2 c8 3e 70 40
       742.9776213651186 259.9239984564985
0004d0 00 80 76 0e 9f e1 89 40 ec 51 8f 4b 30 1c 77 40
       828.2026643045247 369.76179080948236
0004e0 b3 e4 d3 e8 8b a4 9f 3f f9 49 18 ff f1 2b b9 3f
       0.030901132665324748 0.09832680204298318
0004f0 fa 37 92 99 99 99 b9 3f f9 7f 35 97 99 99 c9 3f
       0.09999999999328671 0.1999999988865964
000500 1e 81 55 41 79 39 ba 3f 80 15 a2 bd f2 33 ca 3f
       0.10243947835033793 0.20471033343725864
000510 05 68 41 81 d7 f4 ba 3f 9d 9a d6 c2 c5 11 ca 3f
       0.10529848962451645 0.20366737378681857
000520 84 af f9 22 f6 db b1 3f fc 55 59 11 7d 80 c2 3f
       0.06976259569063187 0.14454615923993674
000530 61 77 26 b2 fe 8e 8b 3f 37 ee cb cf a3 4e b0 3f
       0.01345633488818593 0.06369994948539036
000540 51 bc 90 2f 1d 4a 3f 3f 2c 97 19 78 e6 cc 73 3f
       0.00047744000000000004 0.004834080000000001
000550 15 45 a2 47 e1 7a 74 3f 47 b8 da 43 e1 7a 94 3f
       0.004999999999328671 0.01999999977731928
000560 09 29 ef 43 cc 7d 75 3f 2c 30 15 c9 be 74 95 3f
       0.0052469233623446765 0.020953160307996807
000570 64 c1 28 8e 2f b5 76 3f d8 ea 81 3b eb 3c 95 3f
       0.0055438859586021995 0.020740199572609835
000580 e8 7b 1a fb 3a ef 63 3f fd 35 f0 3b 21 65 85 3f
       0.0024334098787472842 0.010446796075508575
000590 da 2e f9 c8 cc bb 17 3f 26 05 4f 23 ca 9e 60 3f
       9.053647431150492e-05 0.0020288417822206415
0005a0 00 c2 17 0f 25 0a 1a 3f 18 b4 ea 18 f7 9e 44 3f
       9.933329763334858e-05 0.0006293016939104027
0005b0 14 45 a2 47 e1 7a 54 3f 47 b8 da 43 e1 7a 74 3f
       0.0012499999998321675 0.00499999994432982
0005c0 ca 8f 3d be ef 38 4e 3f 36 a1 f6 66 fe c5 6d 3f
       0.000922314703057919 0.0036344498436912355
0005d0 7e 20 c8 1d a1 15 46 3f 48 d0 1e f4 ae 34 5b 3f
       0.000673965139470503 0.0016605099230959808
0005e0 e7 7b 1a fb 3a ef 43 3f fd 35 f0 3b 21 65 65 3f
       0.000608352469686821 0.0026116990188771436
0005f0 da 2e f9 c8 cc bb f7 3e 26 05 4f 23 ca 9e 40 3f
       2.263411857787623e-05 0.0005072104455551604
000600 d8 08 b9 87 fe 41 bb 40 eb 82 97 67 d1 35 91 40
       6977.994258465442 1101.4544967340141
000610 71 7b 3d 57 24 54 81 40 fe 26 70 5a 24 54 61 40
       554.5177445224091 138.6294376554942
000620 3b c3 54 77 3d 7c 87 40 02 65 1b 38 e8 d6 67 40
       751.530012762268 190.7158470664072
000630 dd 8a 8f 8c d8 11 90 40 7a f7 2b 92 e2 16 7a 40
       1028.4614736965661 417.43031518148894
000640 53 6f cc 66 89 cd 91 40 f3 30 27 f2 69 96 70 40
       1139.384181207938 265.4008657008082
000650 e7 1e ab cf ff e7 dd 40 6d 98 e1 0b 59 5a 95 40
       30623.9970500757 1366.5869593858035
000660 34 ac 97 11 b7 d7 8e bf 76 b0 10 1a dc 42 a1 bf
       -0.015059881424312228 -0.033713224584375576
000670 29 a8 f5 ed 8d d8 ae bf ce e7 79 eb 8d d8 be bf
       -0.06024592904834975 -0.12049185751848698
000680 1f 78 f1 6a c7 55 ab bf 77 6e d3 70 34 49 bb bf
       -0.053388816647143005 -0.10658576731241874
000690 b1 de c9 d4 97 0c a4 bf ac e3 22 1a c9 67 b3 bf
       -0.039158577656903566 -0.07580239189236576
0006a0 35 e2 a8 fa 19 c2 a6 bf 44 11 ba 86 bb 32 b1 bf
       -0.04444962677775203 -0.0671803668902316
0006b0 11 a5 f2 9b bc 77 a2 bf 13 2d e1 a9 87 24 a6 bf
       -0.036069768940544596 -0.04324745129323495
0006c0 13 12 88 2f dc cd 94 bf 63 ba 8f bb 7e 60 a9 bf
       -0.020316543961614707 -0.04956432380264599
0006d0 ed 67 49 d8 c0 6e b4 bf 35 47 a4 d6 c0 6e c4 bf
       -0.07981496124685324 -0.15962992172767945
0006e0 6f d6 69 69 cc 44 b4 bf 89 40 a1 41 2e 4d c4 bf
       -0.07917478154726053 -0.15860536770424385
0006f0 26 7a 87 d3 1a 2c af bf e7 d5 b8 4c ba 45 c0 bf
       -0.06088336784499786 -0.1271279215449532
000700 19 fe 61 43 6f e3 ad bf a0 89 8a ac 5e 7c b6 bf
       -0.05837581346076721 -0.0878352328532288
000710 56 90 4d d5 94 2d ab bf 04 2f 12 40 64 4e b0 bf
       -0.053082133329355116 -0.06369616092905167
000720 cc 5a 45 67 51 50 83 3f 7b 69 4b fe 92 20 ab 3f
       0.009430538143232602 0.05298289636785377
000730 00 00 00 00 00 00 00 80 00 00 00 00 00 00 00 80
       -0.0 -0.0
000740 cc 5a 45 67 51 50 83 3f cc 5a 45 67 51 50 83 3f
       0.009430538143232602 0.009430538143232602
000750 7b 69 4b fe 92 20 ab 3f 7c 69 4b fe 92 20 ab 3f
       0.05298289636785377 0.05298289636785378
000760 ac 24 2c 65 14 b1 aa 3f 14 60 a0 6a 0d 48 b7 3f
       0.052132260656500534 0.0909431824987908
000770 72 33 06 f7 64 37 b1 3f 6c d3 1d c4 81 1d bf 3f
       0.06725150137772376 0.12154398954392115
000780 46 44 a0 0c 8b f2 95 3f f6 54 e1 c3 8f d3 be 3f
       0.021433041234619553 0.12041567356330404
000790 00 00 00 00 00 00 00 80 00 00 00 00 00 00 00 80
       -0.0 -0.0
0007a0 45 44 a0 0c 8b f2 95 3f 46 44 a0 0c 8b f2 95 3f
       0.02143304123461955 0.021433041234619553
0007b0 f5 54 e1 c3 8f d3 be 3f f6 54 e1 c3 8f d3 be 3f
       0.12041567356330403 0.12041567356330404
0007c0 db e3 9a fe dc 54 be 3f 00 b3 87 6d c9 74 ca 3f
       0.11848241058295576 0.20668905113361546
0007d0 8e 97 b5 18 67 90 c3 3f 95 09 6e 2f db ad d1 3f
       0.15284432131300857 0.2762363398725481
0007e0 00 c3 d1 26 50 f0 e8 3f 0a 7d 68 1c a7 a4 d9 3f
       0.7793350942793893 0.40067460798486876
0007f0 43 ec c0 ca 72 4c c8 3f 25 bb b5 cc 72 4c b8 3f
       0.18983302021101353 0.09491651056098911
