data/model_singlecapital.npz (npy, 2480 bytes, 1 tensors)

array (column-major) f8 [12, 25]
0	0x3f9ba3975bfa9cfa	0.02699123858351713
1	0x3fb5e22eacab30ee	0.0854825183443528
2	0x3fb999999c721caf	0.10000000066257785
3	0x3fc9999999cca9da	0.20000000009288393
4	0x3fb99999997b7ede	0.09999999997262018
5	0x3fc9999999cda88b	0.20000000009469363
6	0x3fb9999998af660b	0.09999999978699507
7	0x3fc9999999afe2fe	0.20000000004053925
8	0x3fb999999d215ebc	0.10000000082197408
9	0x3fc99999997ccd26	0.19999999994761558
10	0x3fb9999999969b3e	0.09999999999727735
11	0x3fc999999cbdc4b7	0.20000000146277383
12	0x0000000000000000	0.0
13	0x0000000000000000	0.0
14	0xbf647ae144eae386	-0.002499999979900416
15	0xbf747ae147a6b192	-0.004999999999580134
16	0xbf5c41e5563769a4	-0.0017246951691648272
17	0xbf6d4d78163cccc5	-0.0035769792028986524
18	0xbf3346e8f2fb61fb	-0.00029414355502191376
19	0xbf58f32f9a6a8394	-0.0015228237986450776
20	0xbf5c41e5563769a4	-0.0017246951691648272
21	0xbf6d4d78163cccc5	-0.0035769792028986524
22	0xbf3346e8f2fb61fb	-0.00029414355502191376
23	0xbf58f32f9a6a8394	-0.0015228237986450776
24	0x3f847ae147ae147b	0.01
25	0x3f747ae147ae147b	0.005
26	0x3f8cac083126e979	0.014
27	0x3f8cac083126e979	0.014
28	0x3f847ae147ae147b	0.01
29	0x3f847ae147ae147b	0.01
30	0x3f747ae147ae147b	0.005
31	0x3f747ae147ae147b	0.005
32	0x3f8cac083126e979	0.014
33	0x3f8cac083126e979	0.014
34	0x3f8cac083126e979	0.014
35	0x3f8cac083126e979	0.014
36	0x3ff0000000000000	1.0
37	0x3ff0000000000000	1.0
38	0x3ff0000000000000	1.0
39	0x3ff0000000000000	1.0
40	0x3ff0000000000000	1.0
41	0x3ff0000000000000	1.0
42	0x3ff0000000000000	1.0
43	0x3ff0000000000000	1.0
44	0x3ff27fa4d9851eb6	1.1561630722880358
45	0x3ff3237269d7360f	1.1961540350342863
46	0x3ff2c091273881d0	1.1720134288844868
47	0x3ff3701ca304d80e	1.214871060173667
48	0x3fde84272842c310	0.47681597644536655
49	0x3fddf270ba79c19f	0.4679223843623052
50	0x3fdd26d74b2c1cf2	0.45549566594168234
51	0x3fdb53d373e7e198	0.4269913322346155
52	0x3fdd5cc135153227	0.4587862985979733
53	0x3fdbc1308a0b21bd	0.4336663578110594
54	0x3fddcce6b18d3caa	0.46563117350610617
55	0x3fdcb3df255dd07d	0.44847849511211973
56	0x3fdda5492fa94030	0.463213249725416
57	0x3fdd013d29768acc	0.4532006173050547
58	0x3fdde3177b85cb0d	0.4669855791354827
59	0x3fddb42f830b836c	0.46412265584336043
60	0x3ff012bf06eecce9	1.004576708871179
61	0x3ff069cb51a647f2	1.0258286656794522
62	0x3ff0000000000000	1.0
63	0x3ff0000000000000	1.0
64	0x3ff012bf06eecce9	1.004576708871179
65	0x3ff012bf06eecce9	1.004576708871179
66	0x3ff069cb51a647f2	1.0258286656794522
67	0x3ff069cb51a647f2	1.0258286656794522
68	0x3ff068373126df7e	1.0254432601923038
69	0x3ff0b79a65816f6a	1.044824978357577
70	0x3ff08313c0c428f6	1.0320012597972528
71	0x3ff0f05a2e9f6649	1.058679754371399
72	0xbf464b612eaf2153	-0.0006803726695290647
73	0xbf5ab3bf14faed53	-0.0016297689470963952
74	0xbf65ce55df3e9c67	-0.0026618649662455865
75	0xbf75ce55dcfd8ffc	-0.005323729899689763
76	0xbf65076b2cdba676	-0.00256701405202336
77	0xbf750c0079476b95	-0.005138398981638388
78	0xbf5fb678bd818d59	-0.0019355944732744794
79	0xbf704f0f04cf8dee	-0.003981646220356334
80	0xbf5fa7a419389e44	-0.0019320585751162614
81	0xbf675c98ae44fa82	-0.0028517705960944837
82	0xbf5c4e1ae1685973	-0.0017276060585849878
83	0xbf6097cd504c4c39	-0.0020255098373893857
84	0x3f8b56e0aad62fb9	0.01334929963447694
85	0x3f8526b9fbcfaf36	0.010327771184129735
86	0x3f8cac083126e979	0.014
87	0x3f8cac083126e979	0.014
88	0x3f8b56e0aad62fb9	0.01334929963447694
89	0x3f8b56e0aad62fb9	0.01334929963447694
90	0x3f8526b9fbcfaf36	0.010327771184129735
91	0x3f8526b9fbcfaf36	0.010327771184129735
92	0x3f8543748629520e	0.010382566780358562
93	0x3f7f3d6dba9ac819	0.007626942280397863
94	0x3f835a9ccfec54be	0.009450173468886876
95	0x3f772beb4f7edad2	0.005657118970637769
96	0xbfade488c53cc910	-0.058384203030430126
97	0xbfc6c7540333364e	-0.17795801311733545
98	0xbfcbfc50aabadf6a	-0.2186375459330024
99	0xbfdbfc50a7d64b56	-0.43727508917179614
100	0xbfcbf4307a9946b8	-0.21838956819788335
101	0xbfdbf80ad17e7176	-0.4370142980422068
102	0xbfcaf5cb1c4ada24	-0.21062601930107505
103	0xbfdb959fa7ad2d4f	-0.4310073029962113
104	0xbfcb15fa3d20b3b6	-0.2116081999278358
105	0xbfdaf951b4662ef5	-0.4214672338209618
106	0xbfca539d88bf457c	-0.20567673852069024
107	0xbfd98820bc5f6161	-0.3989335860801671
108	0x3f37df53bbfbdf1b	0.00036426348013617196
109	0x3f6dee37ec576cb8	0.0036536304712463073
110	0x3f747ae14c3bb304	0.005000000066257785
111	0x3f947ae147ffc815	0.020000000018576786
112	0x3f747ae1477de9b5	0.004999999997262018
113	0x3f947ae148015f96	0.020000000018938723
114	0x3f747ae146375b96	0.004999999978699507
115	0x3f947ae147d1bd1b	0.020000000008107848
116	0x3f747ae14d541cb2	0.005000000082197408
117	0x3f947ae14780008f	0.019999999989523117
118	0x3f747ae147a94a4e	0.004999999999727734
119	0x3f947ae14cb4bfde	0.02000000029255477
120	0x3f9ba3975bfa9cfa	0.02699123858351713
121	0x3fb5e22eacab30ee	0.0854825183443528
122	0x3fb999999c721caf	0.10000000066257785
123	0x3fc9999999cca9da	0.20000000009288393
124	0x3fb99999997b7ede	0.09999999997262018
125	0x3fc9999999cda88b	0.20000000009469363
126	0x3fb9999998af660b	0.09999999978699507
127	0x3fc9999999afe2fe	0.20000000004053925
128	0x3fb999999d215ebc	0.10000000082197408
129	0x3fc99999997ccd26	0.19999999994761558
130	0x3fb9999999969b3e	0.09999999999727735
131	0x3fc999999cbdc4b7	0.20000000146277383
132	0x3f16ced320010de0	8.700526814302929e-05
133	0x3f4606b2bfddd387	0.000672185211199592
134	0x3f547ae14c3bb303	0.001250000016564446
135	0x3f747ae147ffc814	0.005000000004644196
136	0x3f538b1c21f8247f	0.001192834351856825
137	0x3f738ada35327ee2	0.004771091818070979
138	0x3f4dfbd9722134c8	0.000915032553402328
139	0x3f6db026d9e7bf52	0.0036240347683288788
140	0x3f4e4e7a09e81452	0.0009248824970319403
141	0x3f652adfb6df1f5c	0.0025839204235786183
142	0x3f4b70e0a5b56c6c	0.0008374306593553877
143	0x3f5e2060b7d124bc	0.0018387741577206426
144	0x40bf1eb9ffd327be	7966.726559827044
145	0x40901cbd3f5360c5	1031.1848118808568
146	0x4081542453593a3b	554.5177370997329
147	0x4061542456ee5c03	138.62943598322462
148	0x408228bd95fad152	581.0925712199335
149	0x406228fad82e31bb	145.28062066099469
150	0x4087ac166df4fe07	757.5109519138358
151	0x4067e8723948efbe	191.26394333119782
152	0x40876b8c4c80cf30	749.4435052932004
153	0x4070c410afea8878	268.2540740167092
154	0x4089dda7d7b2c1df	827.7069543805518
155	0x40778f628feb5d78	376.9615630334806
156	0x3f9fa48be8d3e4b3	0.030901132665324748
157	0x3fb92bf1ff1849f9	0.09832680204298318
158	0x3fb9999996259c67	0.09999999919601664
159	0x3fc9999999905df6	0.19999999998320533
160	0x3fb9f5bb81849285	0.10140582954461237
161	0x3fc9f16db9cf6aef	0.2026803166653148
162	0x3fba8c03b0040f81	0.10369895026457067
163	0x3fc933050e264a4b	0.19686949911973026
164	0x3fb1a92f55e2a206	0.06898780676659308
165	0x3fc2506b0de5fffb	0.1430791681159461
166	0x3f8818a32fba3a79	0.011765742200876549
167	0x3faf2ffb81052479	0.0609129519458031
168	0x3f3f4a1d2f90bc51	0.00047744000000000004
169	0x3f73cce67819972c	0.004834080000000001
170	0x3f747ae14227b291	0.0049999999196016645
171	0x3f947ae1479f4ea8	0.019999999996641066
172	0x3f750f53fdd916bd	0.00514157113281549
173	0x3f950858f08b195c	0.020539655381776142
174	0x3f7605ea9e4b2983	0.005376736142986951
175	0x3f93d8093e39ba94	0.019378799841826735
176	0x3f637e818f03f64c	0.002379658741232393
177	0x3f84f685109cc5e5	0.010235824174375583
178	0x3f122507bf9f1d8e	6.921634476874367e-05
179	0x3f5e653f3c7da7ce	0.0018551938573758589
180	0x3f1a0a250f17c200	9.933329763334858e-05
181	0x3f449ef718eab418	0.0006293016939104027
182	0x3f547ae14227b291	0.0012499999799004161
183	0x3f747ae1479f4ea7	0.004999999999160266
184	0x3f4da056f56d36f6	0.0009041237452522544
185	0x3f6d303f50ae59b1	0.003563045179770096
186	0x3f45bd323880b14b	0.0006634230821922852
187	0x3f59bd7739661c5a	0.0015710510539024476
188	0x3f437e818f03f64b	0.0005949146853080981
189	0x3f64f685109cc5e5	0.0025589560435938957
190	0x3ef22507bf9f1d8e	1.730408619218592e-05
191	0x3f3e653f3c7da7ce	0.0004637984643439647
192	0x40bb41fe87b908d8	6977.994258465442
193	0x409135d1679782eb	1101.4544967340141
194	0x408154245be03c86	554.5177533644171
195	0x40615424573ffd2b	138.62943613527145
196	0x4087f534cfa68730	766.6507866868978
197	0x4068513623f0c7a0	194.53785893466284
198	0x409053376f92a4dd	1044.8041365540623
199	0x407b9331c7d552aa	441.1996534665037
200	0x4092347b31a8b768	1165.1203066217367
201	0x4070edefeedc623c	270.87107740485567
202	0x40e38f1b311a9c80	40056.84974413458
203	0x40975a00d44ac4b5	1494.500809829956
204	0xbf8ed83889121d7c	-0.015060846026485157
205	0xbfa141df63a11156	-0.033705693160785685
206	0xbfae98896e7c39ac	-0.05975751374909363
207	0xbfbe98896b52928c	-0.1195150267618123
208	0xbfab1052cb7debf7	-0.0528589127925087
209	0xbfbb037103420c3f	-0.10552126245060921
210	0xbfa3b775fa5ea450	-0.038509070217806696
211	0xbfb3105f2db2cc20	-0.07446856370624788
212	0xbfa64fde26f5386b	-0.04357809281883437
213	0xbfb08796fe770694	-0.06456893646739054
214	0xbfa2434ab11014b5	-0.035669645418275144
215	0xbfa555fa3b7d28d1	-0.041671581041173085
216	0xbf95150e51f5a5ba	-0.020588134529509118
217	0xbfa9c8d1ae636dd3	-0.0503602528931101
218	0xbfb486c2dd780dda	-0.08018129260022225
219	0xbfc486c2db58ddfa	-0.16036258421239308
220	0xbfb4550acb4de667	-0.07942264045223056
221	0xbfc45d9aedec0658	-0.1591066037872675
222	0xbfaef734ef5c2344	-0.06047978803514423
223	0xbfc031243bf5b525	-0.1264996807835043
224	0xbfadc0545610a2c4	-0.05810798216436333
225	0xbfb5edd892d50d48	-0.08566049179812751
226	0xbfab5880bc7debd2	-0.05340959835935845
227	0xbfb00c1e122a3cb3	-0.06268489783745927
228	0x3f83a66d3cdd3ad5	0.009594777507712685
229	0x3fabb94e4917aef6	0.054148146078515966
230	0x8000000000000000	-0.0
231	0x8000000000000000	-0.0
232	0x3f83a66d3cdd3ad5	0.009594777507712685
233	0x3f83a66d3cdd3ad5	0.009594777507712685
234	0x3fabb94e4917aef6	0.054148146078515966
235	0x3fabb94e4917aef6	0.054148146078515966
236	0x3fab4f670b429e0b	0.05334016811803729
237	0x3fb80e984d563f03	0.09397270095928083
238	0x3fb12cb7d94cbf16	0.06708859496279404
239	0x3fbf7e217adb38bc	0.12301835297987201
240	0x3f965464dc6fc2db	0.02180631251752883
241	0x3fbf811ec76c5e19	0.12306396836026358
242	0x8000000000000000	-0.0
243	0x8000000000000000	-0.0
244	0x3f965464dc6fc2db	0.02180631251752883
245	0x3f965464dc6fc2dc	0.021806312517528834
246	0x3fbf811ec76c5e18	0.12306396836026356
247	0x3fbf811ec76c5e19	0.12306396836026358
248	0x3fbf08c68ccbb399	0.12122765481372112
249	0x3fcb5667409c3056	0.2135743203620019
250	0x3fc384454862d926	0.15247407946089558
251	0x3fd1e4c19170ebe0	0.27958716586334553
252	0x3fe96e65b8a63c70	0.7947262388642127
253	0x3fda7007d35b02b7	0.4130878032702116
254	0x3fc8f18785c10d2b	0.1948708918663241
255	0x3fb8f1878855205f	0.09743544653349677
